model.pt (torch, 321201 bytes, 7 tensors)

weight f4 [16, 1, 3, 3]
000000 a9 2f c2 3d c5 b6 df bd 4f 5b 8c bd 12 65 7d 3b
       0.09481747 -0.109235324 -0.06853353 0.003866498
000010 5f 22 42 3d da b6 f7 bd e9 b1 96 3e fb 07 95 3e
       0.04739606 -0.12095423 0.2943261 0.2910765
000020 b7 d8 3b be 5e 0b 8a bd bb 6a c4 be c1 c8 1e 3d
       -0.18344389 -0.06740449 -0.3836268 0.038765673
000030 ea 3c 98 be 9c c5 a4 3d 60 dc 81 be 09 b0 1a bd
       -0.29733974 0.080455035 -0.25363445 -0.037765536
000040 7e d8 8d bc 38 d3 00 bb 75 a1 88 3e 93 f0 c0 bd
       -0.017315146 -0.0019657146 0.26685682 -0.09420886
000050 ea 12 78 be d0 e7 0f 3d 48 04 89 be ac e1 86 3d
       -0.24225965 0.035133183 -0.2676108 0.06586012
000060 14 0f 6a be ce db 88 3b ec fd fa 3e 3c de 9e 3e
       -0.22857314 0.0041765934 0.49021852 0.31028926
000070 c6 c6 33 bc dd a7 c5 bd 02 00 8c be 9c a8 1f 3e
       -0.010972684 -0.09651158 -0.27343756 0.15591663
000080 1a 69 3a bc d3 0c 94 be c4 54 57 bd ea f9 d2 3d
       -0.011377597 -0.28916034 -0.052571073 0.103015736
000090 bb 21 ad bc 46 8c a0 be 58 cc 3f 3e 7a 3d 35 be
       -0.021134248 -0.3135702 0.18730295 -0.17699233
0000a0 c6 86 cd be 96 ec 2a 3e 37 6f 88 3d 96 0a 81 3e
       -0.40141886 0.16691813 0.066618375 0.2520339
0000b0 b4 7d b7 be bd 06 ff 3d 07 c5 a5 bd 80 75 c1 3e
       -0.3583809 0.12452457 -0.080942206 0.37784958
0000c0 c6 59 b2 bd 17 1b 51 3d ac 8a 95 be 0d ee 80 be
       -0.08708529 0.051051226 -0.2920736 -0.25181618
0000d0 7e 38 06 bd eb c8 a3 3e 44 b0 ad be 53 94 89 3d
       -0.03276872 0.31989226 -0.33923542 0.06717744
0000e0 d2 5c 85 3e 5b 4c 7d 3e b0 2a a9 be ed e4 d1 3d
       0.2604738 0.24736159 -0.3304038 0.10248742
0000f0 f5 c1 3e be 58 71 1b 3e 46 df 9d 3c be 0d fc bd
       -0.18628676 0.15179956 0.019271504 -0.123073086
000100 64 69 9d bd c7 fd 69 3e 42 92 90 be 02 23 08 bd
       -0.07686117 0.22850715 -0.28236586 -0.03323651
000110 71 01 a3 3e 9c 12 6d be f0 83 10 be 5f b4 bb 3e
       0.31837037 -0.2315163 -0.1411283 0.3666105
000120 e2 08 28 be fa 52 0c 3e 8b c0 2f be 66 e4 a8 3e
       -0.16409639 0.13703528 -0.17163293 0.32986754
000130 db 8c af bd 9d a7 a6 3e 3d 6d c0 bb 70 ee 56 3e
       -0.08571788 0.32549754 -0.005872397 0.20989394
000140 cb 71 02 3c 20 37 2a be a1 43 51 be 6f 3c c8 3d
       0.007961701 -0.16622591 -0.20435955 0.09777152
000150 74 cd 3d be b2 62 d1 3d af 5c aa be 3b a4 7b be
       -0.18535405 0.10223903 -0.33273837 -0.24574368
000160 6b 83 da 3d 97 4e 89 be 0e 99 12 be fa 0c a2 3e
       0.10669597 -0.26817772 -0.14316198 0.31650525
000170 d6 ae 75 3e df 4b bc 3d 89 5f de 3d 82 21 ab 3e
       0.23992476 0.09194159 0.10858066 0.33424002
000180 c6 ac ef 3d 46 58 7d be b5 47 6d bc 1a 6f 56 be
       0.11702876 -0.24740705 -0.014482428 -0.2094082
000190 01 4d 5f be be ce 17 3d d7 51 cd 3c fb e2 45 be
       -0.21806718 0.0370624 0.025063438 -0.19324867
0001a0 76 c6 31 be b5 30 6d 3e c0 8f aa 3e ab f8 7a 3d
       -0.17360863 0.23163112 0.33312798 0.061272305
0001b0 c6 5a 5c 3e a5 de 87 3e 59 9a 4a bc fb 95 49 be
       0.21519002 0.26537052 -0.012365901 -0.1968612
0001c0 bd 99 a7 3e 49 a7 7e be 79 60 6f be 48 0c fc bd
       0.3273448 -0.24868502 -0.23376645 -0.1230703
0001d0 0b a5 79 3e 6b c7 0a bd 54 6c 88 3e ab de 22 be
       0.24379365 -0.033881586 0.26645148 -0.15905254
0001e0 4b 7a 06 be 00 53 37 bd 36 c6 ff 3d 10 b1 25 be
       -0.13132589 -0.04475689 0.124889776 -0.16180825
0001f0 90 16 85 3d 20 17 86 bd a0 d6 37 bd a5 d0 0e be
       0.06498444 -0.065473795 -0.044882417 -0.13946779
000200 a2 ef b6 be cd 9d 29 3e 0c 22 9d 3e dc 09 70 be
       -0.357297 0.16564102 0.30690038 -0.23441261
000210 7e c4 21 be 34 43 aa 3e f7 ae c7 bd fd 94 67 3d
       -0.15797612 0.33254397 -0.09750169 0.05653857
000220 9f b6 f5 3b a0 c8 a3 bc fc 8b 76 bd 94 16 79 be
       0.007498577 -0.019993126 -0.060192093 -0.24325019
000230 78 81 30 3e 13 37 09 be 8e bf b5 3e a8 d0 a8 3e
       0.17236888 -0.13399915 0.35497707 0.32971692

bias f4 [16]
000000 0b 3a a5 be e7 7b ab 3e d4 da f7 bc 64 49 3c 3e
       -0.32270846 0.33492967 -0.030255713 0.18387371
000010 f1 9e c8 3e 4a 1c 4f be 42 69 5a bc 5f 78 f0 bc
       0.39183763 -0.20225635 -0.0133307595 -0.029354272
000020 45 6d af 3a 03 15 df 3e 33 21 b3 be 85 77 4a 3d
       0.0013384005 0.43570718 -0.34986266 0.04943039
000030 e2 14 f9 bd 86 38 54 be ce ad 0e 3e 03 fb 89 be
       -0.12162186 -0.20724687 0.13933489 -0.2694932

weight f4 [32, 16, 3, 3]
000000 2b a2 9c bc 33 9a 81 bc 79 6f 68 bd 78 a2 ce bb
       -0.019120296 -0.015820598 -0.056746934 -0.006305989
000010 2d 7f 89 3d c1 b5 17 3d b3 d3 36 bd af b9 34 be
       0.0671371 0.03703857 -0.044635486 -0.17648958
000020 a2 65 19 3c 90 d6 a9 bd 2b c7 01 be 6b 94 51 3d
       0.00936261 -0.08292878 -0.12673633 0.051166933
000030 68 b7 d8 be e3 db 5d be 19 46 0d 3e 18 63 ff be
       -0.42327428 -0.21665911 0.13796271 -0.4988029
000040 b0 34 fb bd e1 f7 1c 3e ac e2 29 be db 9b 0e bd
       -0.12265909 0.15328933 -0.16590375 -0.034816604
000050 90 38 84 be 66 c8 d7 be 56 50 41 be b9 74 52 be
       -0.25824404 -0.4214508 -0.18878302 -0.20552339
000060 b0 e0 87 be 5a e6 c0 be 8a 73 d5 be 10 e4 95 bb
       -0.2653861 -0.37675744 -0.41689712 -0.0045743063
000070 19 ee 98 3d 4c 75 e3 3d 56 f6 b6 bd a0 a1 ab 3c
       0.074672885 0.11106357 -0.089337036 0.020951092
000080 19 60 db 3d 90 8e c9 3c a5 e9 66 3d 09 df c6 3d
       0.107116885 0.024604112 0.056375165 0.09710509
000090 0c b1 88 bd a0 02 80 3d 5f ee 82 3c 06 dd 96 bd
       -0.06674394 0.06250501 0.015982805 -0.073663756
0000a0 47 30 5b 3d a5 ce d0 3d 97 af 2c bd cc 82 50 3d
       0.053512838 0.10195664 -0.042159643 0.050905988
0000b0 c6 51 48 3e b9 36 ae bc e6 bd 1c bd f5 30 af bd
       0.19562444 -0.021266328 -0.03826704 -0.0855426
0000c0 c6 2f 0f be af 2b d6 3d b0 27 36 3b 21 66 18 be
       -0.13983068 0.10457551 0.0027794652 -0.14882709
0000d0 88 c0 07 3d 55 2f f8 bc eb 71 63 3d 40 f5 f5 3b
       0.033142596 -0.030296007 0.055528563 0.0075060427
0000e0 57 0d 36 be bc 72 8d bb a1 c9 61 ba 52 9c e2 bd
       -0.17778526 -0.004316656 -0.0008613114 -0.11064972
0000f0 ca 50 c9 bb ec 7f e9 bd 68 2a 8e bd 2c 90 a2 3d
       -0.006143664 -0.11401352 -0.06941682 0.07937655
000100 41 c8 32 bd 99 51 d0 be 08 ed 80 be 82 c5 a7 bd
       -0.04364801 -0.40687254 -0.2518084 -0.081919685
000110 29 11 8a be 95 52 94 be ee b7 fa bd ac c7 70 be
       -0.26966217 -0.28969255 -0.12242113 -0.23513669
000120 34 a1 55 3b 18 50 5f 3d 4e 41 0a 3a af 13 07 3d
       0.0032597305 0.054519743 0.00052740134 0.032977756
000130 5f 14 5c 3d a8 ad 4b 3b 5f 27 d6 bc 6b d6 a0 bd
       0.053730365 0.003107885 -0.02614182 -0.07853397
000140 96 54 9f 3b 00 b4 65 be 74 44 47 3c cc 5c 25 3e
       0.0048623784 -0.22431946 0.012162317 0.1614868
000150 a7 b2 79 be cf aa 8b bd 2c f6 db 3d 91 a4 7a be
       -0.24384557 -0.068196885 0.10740313 -0.2447684
000160 5c 1d e1 3c 04 32 37 3e 26 b1 9d 3d 87 ca a7 3d
       0.02747982 0.17890173 0.07699804 0.08192926
000170 5a 0b ef 3c d4 50 63 3d 26 70 b8 bd 6d c6 3f be
       0.029180218 0.055497006 -0.090057656 -0.18728037
000180 20 f4 52 bd c1 2a 82 be b8 26 73 be 70 67 e3 3b
       -0.051502347 -0.25423244 -0.23745239 0.006939821
000190 1f c0 cc 3c f0 c2 97 bd e9 88 f3 bd 35 7f af bd
       0.024993954 -0.07410228 -0.11891348 -0.08569185
0001a0 f2 c7 57 bd 59 5e 4b be c3 2f 61 bd de e3 b5 bd
       -0.052680917 -0.1986021 -0.05497719 -0.08881353
0001b0 0f 8e d5 bd 01 13 b7 bc aa 91 00 3e 10 7d 51 bd
       -0.10427486 -0.022347929 0.12555566 -0.05114466
0001c0 f5 88 78 3d 51 09 be bd b3 86 53 bd ca 12 c3 bd
       0.060677487 -0.09279121 -0.05164213 -0.09525068
0001d0 2b 73 99 be f0 43 52 3d de 96 6c 3d d3 bd 5a 3d
       -0.2997068 0.05133432 0.057761066 0.053403687
0001e0 e3 10 2c 3d 26 8d 74 3d b6 ca 2f 3c de c3 1e bd
       0.042008292 0.059704922 0.010729482 -0.038761012
0001f0 6b f1 1b bd 60 bb 74 3c 1b 38 13 bd 34 00 d0 bb
       -0.03807203 0.014937252 -0.03594218 -0.0063476805
000200 78 3d ad 3c 2e ae 9b bd cf aa c7 3d 94 f6 b3 bd
       0.021147475 -0.076015815 0.09749376 -0.087872654
000210 66 97 32 be 4b 97 46 3d f8 5a 57 bd 95 71 b1 bb
       -0.17440566 0.048484128 -0.05257699 -0.0054151514
000220 30 f8 3c 3e e6 e4 e7 bd 34 6b ca bd 46 99 d4 3d
       0.18454051 -0.11322956 -0.098837286 0.10380797
000230 f3 3b a8 be c1 3f 64 3c 16 81 d3 3c 3f af 7d be
       -0.32858238 0.013931216 0.025818389 -0.24773882
000240 f9 df 6c 3e 8b 27 a3 3d 0c d2 6c 3e d2 54 a2 3e
       0.23132314 0.079665266 0.23127002 0.31705338
000250 00 12 a4 3c 52 27 28 3e cb 58 90 3e 0e 61 28 bd
       0.020028114 0.1642125 0.28192744 -0.041108184
000260 1b bf 9d 3e c6 96 20 3e 08 8d 4c 3f 0e 34 7b 3f
       0.30809864 0.15682516 0.79902697 0.98126304
000270 35 70 04 bb c5 68 0f 3f 7f b2 4b 3f dd dc 03 bf
       -0.0020208482 0.5601924 0.7956924 -0.51508886
000280 87 ca ba 3d 03 45 2b 3e 8c 0f 31 3e 65 8e 14 bc
       0.0912066 0.16725545 0.17291087 -0.009067153
000290 07 cc dc 3d 25 29 cf 3e e5 3d f6 3e 37 81 0b 3f
       0.10781103 0.40461078 0.48094097 0.5449404
0002a0 44 f9 18 3f b9 fa 06 3f 1f 8d 83 3e d2 55 b4 bd
       0.5975535 0.5272632 0.25693604 -0.088054314
0002b0 ac 30 ed bd 2a 1e 6b 3d 25 7a 90 bc ac 15 44 be
       -0.11581549 0.057401814 -0.017636368 -0.19148892
0002c0 ad c3 e4 bd 4c ce cd bc 75 d6 d4 ba 8d fa 9c bc
       -0.11170135 -0.025122784 -0.001623823 -0.01916244
0002d0 fb d5 53 3e 91 a4 df 3e c1 d4 1c 3f e3 f9 d0 3d
       0.20687096 0.43680242 0.61262137 0.10203912
0002e0 05 c7 a0 3e 2c ec a4 3e 2f 5a 0c be 7e e7 05 3b
       0.3140184 0.32211435 -0.13706277 0.002043217
0002f0 67 2d 7b 3d d0 9b df bd 54 13 2f 3f d7 a3 b5 3e
       0.061322596 -0.10918391 0.6838887 0.35476562
000300 51 00 0a be 91 d2 79 3e 68 b1 a7 3d ee 3a 0f bd
       -0.13476683 0.24396731 0.081881344 -0.03496831
000310 ae ed ba 3e 57 cf 4c be 05 77 97 be a2 38 d2 bd
       0.3650946 -0.20000969 -0.29582992 -0.10264708
000320 86 2b a8 3e 54 3d 22 be d9 a7 a9 bd ef dc 29 3e
       0.32845706 -0.15843707 -0.082839675 0.16588186
000330 cd e7 9f ba d3 f9 f6 3d 93 41 6e 3e 9b 25 43 be
       -0.0012199819 0.12059369 0.23267202 -0.19057314
000340 2a a1 7a be 6b ae 15 3e 3b 82 3e be 82 9e a3 bd
       -0.24475542 0.14617316 -0.18604366 -0.07989217
000350 c9 d6 7a 3e ff 00 58 3d 5b 09 a4 3b 95 97 78 3b
       0.24495997 0.052735325 0.005005998 0.0037932147
000360 ef 65 e0 bd a8 65 86 be 72 b7 58 be a5 a3 33 bd
       -0.10956942 -0.26249433 -0.21163729 -0.043857235
000370 36 cd b1 bd 68 e6 44 bb 35 c5 95 3d f6 eb 15 3d
       -0.08681719 -0.003004456 0.07313005 0.036601983
000380 f9 a1 15 3e 25 d8 30 3e 3c 51 31 3f 93 51 34 3f
       0.14612569 0.17269953 0.6926458 0.7043697
000390 2c b0 62 bc 79 ab 8f 3e c9 66 ca 3e 62 70 d6 be
       -0.013835948 0.2806051 0.39531544 -0.41882616
0003a0 8f 2c 47 be 84 12 49 be 52 86 e2 be 4a 74 02 bf
       -0.19450592 -0.1963597 -0.44243103 -0.50958693
0003b0 48 77 b8 be d7 e7 ba be ac 53 d9 be 45 4a 88 be
       -0.36028504 -0.36505005 -0.4244665 -0.26619163
0003c0 cf 66 f7 3d 37 48 ed 3d 81 d9 8b 3e 31 7b 7f 3d
       0.12080156 0.115860395 0.2731438 0.062373344
0003d0 33 44 83 3e 2e 19 4a 3e 24 3d aa 3e 99 18 f4 3e
       0.2563797 0.19736168 0.33249772 0.47675017
0003e0 14 5d f8 3e e1 83 99 3e 49 ea 47 3f 2f 46 2d 3f
       0.48508513 0.29983428 0.78091866 0.67685217
0003f0 0f f7 8b be ac c3 a2 be 8c 61 d1 be bd cd cb be
       -0.27336928 -0.3178991 -0.40894735 -0.39805403

bias f4 [32]
000000 db c4 16 3e c5 e8 02 be b6 bb 94 bd 46 70 c6 bd
       0.14723532 -0.12784107 -0.072623655 -0.09689383
000010 43 37 06 3e 82 38 16 be 8a 75 a4 3d 95 e2 dd bd
       0.13107018 -0.14669994 0.08030231 -0.10834233
000020 e0 79 5b bd d1 12 0c be 5a c9 07 3e 3e c5 21 be
       -0.053583026 -0.13679053 0.13260403 -0.15797898
000030 2e 36 8f bc a8 cf 3c be 80 62 e0 bd 34 18 ea 3d
       -0.01748189 -0.1843859 -0.109562874 0.11430398
000040 dc 66 67 bc 4f 29 6e 3c a7 51 09 3e 85 6c a4 bd
       -0.014123645 0.014536216 0.13410054 -0.08028511
000050 2d 81 3c bd 0e 2c b3 3c d1 85 c7 bd d6 5a 19 be
       -0.04602163 0.021871593 -0.0974232 -0.14976057
000060 eb 83 89 3d 47 9d 4e 3d 27 9b c6 3d e9 47 ab bc
       0.067146145 0.05044296 0.09697562 -0.020908313
000070 9e cf 3a be 39 cf ab 3d da 82 7c bb 97 ae 12 3e
       -0.18243262 0.08389134 -0.0038530142 0.14324413

weight f4 [64, 1152]
000000 e4 4f 03 3c 25 b8 b7 bc f7 f7 25 3c da 20 2c 3c
       0.008014653 -0.022426674 0.01012992 0.010505879
000010 67 66 17 3c 61 88 c9 bb 79 32 8a 3c 44 4e b4 bb
       0.009240723 -0.006150291 0.01686977 -0.005502494
000020 c5 62 9d 3c b9 fb d7 3b 8e f8 64 bc 65 ea 3c 3c
       0.019212136 0.006591287 -0.013975276 0.011530493
000030 34 51 0c bc 77 cc 7d bc 30 95 ef bc dc 0a fb bc
       -0.008564282 -0.015490643 -0.029245943 -0.030644827
000040 46 93 84 bc 4e de 11 bd a2 1e 24 3c 13 da 86 3b
       -0.016183507 -0.035612397 0.010017069 0.004115352
000050 f0 f9 a8 bc eb 7b 9c 3c e1 f4 84 bc 75 ea e3 3a
       -0.020626992 0.019102057 -0.016230049 0.0017388599
000060 b6 0b 91 bc e3 fd fd ba 36 3d 96 3c fc b8 ff bc
       -0.01770578 -0.0019378032 0.018339735 -0.031216137
000070 24 4f 1b bd e2 72 9a 3c ab af 14 bd f5 93 07 bd
       -0.03791727 0.018853609 -0.036300343 -0.033100087
000080 2e b3 74 bc b5 a6 b3 bc a2 b8 f4 bc 18 5b 6c bb
       -0.014935298 -0.021930078 -0.029873196 -0.0036065038
000090 25 5c b9 3c 11 0b 6c 3c 9c a2 42 bc d7 21 e0 3b
       0.022626946 0.014406935 -0.011879589 0.0068399715
0000a0 06 ad 3a 3c 7e 8e e5 bb 7a 34 ab bb ea 70 b7 bc
       0.011393791 -0.007005512 -0.0052247616 -0.022392709
0000b0 32 bf 42 bc 2f 93 5f 3c 9c 12 94 bb 28 12 68 bc
       -0.011886405 0.013645931 -0.00451882 -0.014164485
0000c0 3e 45 8e 3c 0e 1f cc bb 21 f9 87 bc d4 17 80 3c
       0.017367002 -0.006229288 -0.016598286 0.015636362
0000d0 4e 41 ca 3a 85 3e de 3c 92 a2 0f 3c b5 7e 9a 3c
       0.0015430839 0.027129421 0.008766787 0.018859247
0000e0 b9 de 3b bc 21 fc 51 bc c4 f2 ab 39 54 4c a5 3c
       -0.011466675 -0.01281646 0.00032796536 0.020177998
0000f0 02 b8 04 ba 2c ef dc 3b 7c 17 4b bc 7f e7 fd ba
       -0.00050628197 0.0067423787 -0.012395736 -0.0019371359
000100 48 38 f0 3c 56 0d cc bb bc 8c a3 b9 6d 78 b7 3c
       0.029323712 -0.0062271757 -0.00031194638 0.02239629
000110 ac 5f e1 3b 69 55 e5 bc e8 4d 9d 3c a9 f7 d6 3c
       0.00687786 -0.027994828 0.019202188 0.02624114
000120 41 2e e8 bc 7f 5f 7d 3b 76 bd 12 bc 12 81 ae bc
       -0.028342368 0.0038661656 -0.008956304 -0.02130178
000130 c8 e5 c0 3c f3 28 e7 3c 37 b1 48 bc f1 31 ee 3c
       0.023547068 0.028217768 -0.012249283 0.029076548
000140 f3 94 c0 3c af dc 7e 3c a2 ac 9d bc 35 b7 cd 3c
       0.023508525 0.015555545 -0.019247357 0.025111774
000150 70 3d b9 bb a7 7d c7 bc a1 e2 a0 3c d1 e1 bc 3c
       -0.005653076 -0.024351908 0.019639315 0.023056896
000160 b3 d5 ef bb 50 4f 03 3c 67 84 a2 bc 4c 77 90 3c
       -0.007319176 0.008014515 -0.019838525 0.01763501
000170 9b 58 94 3c 2c e6 77 bc 66 41 06 3b bd 15 40 bb
       0.018108657 -0.015130561 0.0020485758 -0.0029309832
000180 47 fc 85 3b 89 e0 ec bb 89 d0 b3 bb fd ac f2 b9
       0.0040889117 -0.007228915 -0.005487506 -0.00046286723
000190 3b 10 f1 bc 10 97 9d 3c 74 9e 85 bc 08 25 5d 3b
       -0.029426685 0.019237071 -0.016310908 0.0033743996
0001a0 46 fa 59 3c e4 33 e1 bb a6 5c b0 3a bd 90 b6 3c
       0.013304299 -0.006872641 0.0013455346 0.022285813
0001b0 d4 7b 06 bb 73 49 17 bd a4 dd b5 b9 35 59 64 3c
       -0.0020520585 -0.03693528 -0.00034688145 0.013937284
0001c0 46 d9 a6 bc 93 d6 8d 3b 4c 5e ed bc 5b 9c 44 bc
       -0.020367276 0.0043285578 -0.028975628 -0.012000169
0001d0 ef 31 a0 3c 53 82 a3 3c 44 d1 02 bd a6 d3 90 bb
       0.01955506 0.019959604 -0.031937853 -0.0044197617
0001e0 af 22 a2 3c b5 8b 4e bc 79 67 a8 3a 21 b4 08 bc
       0.019791929 -0.012606551 0.001284822 -0.008343727
0001f0 b4 27 83 bc 2c a7 c9 bc 74 49 56 bc 17 27 1c 3c
       -0.016010143 -0.024615847 -0.013079036 0.009530804
000200 19 67 43 bc d9 ef c3 3c 57 1f 2b 3a a7 3e 0a bd
       -0.011926436 0.02391808 0.00065278023 -0.033751156
000210 ee a2 f1 3b ef 08 ef 3c fa 40 99 bb e9 73 14 3d
       0.007374159 0.029179065 -0.0046769353 0.036243353
000220 30 b2 88 bc 2a ee ce bc f2 c6 2d bc 5d 7c 9b 3c
       -0.016686529 -0.02526005 -0.010606514 0.0189802
000230 70 10 bf 3c 27 12 64 3c 9b 2d 0b bd 7c 5d 55 3c
       0.023323268 0.0139203435 -0.03397904 0.013022777
000240 87 8e e3 bc 2c df ba ba 30 21 df bc 74 52 b0 ba
       -0.027777923 -0.0014257184 -0.027237505 -0.0013452307
000250 2d 37 a3 3b 03 f6 d3 bc 33 a1 e0 bc 82 a0 bb 3b
       0.0049809427 -0.025874143 -0.027420616 0.005725921
000260 33 2d 46 3c df ee 6f bb 35 fd df bc 2a cb ca bc
       0.012095737 -0.0036610884 -0.027342418 -0.02475508
000270 32 ca 93 3c 39 c0 e8 3b 17 6d e7 bc 93 17 0a bd
       0.01804075 0.007102993 -0.02825026 -0.03371389
000280 7e 8d bf bc 6c 01 0d bd c1 71 97 3c 7b a0 90 bb
       -0.023382898 -0.034425184 0.01848686 -0.004413662
000290 0a 03 6b 3c 8c 6c a1 3c d0 61 da bc e6 37 2b 3c
       0.014343986 0.01970508 -0.026657969 0.010450339
0002a0 73 c8 d7 bc 6f a8 63 bc 39 d7 6c 3c 78 b5 9a 3b
       -0.026340699 -0.013895138 0.01445561 0.00472134
0002b0 7c 71 1b bc fa fc 75 ba 23 43 0b 3c bf 68 5d 3c
       -0.009487506 -0.0009383705 0.008499893 0.013513743
0002c0 86 f0 03 bd 5d 47 18 3b 84 cc 0f bd a6 12 11 bd
       -0.032211803 0.0023235895 -0.03510715 -0.035418175
0002d0 c7 c8 c0 3c 41 bc 3c 3b 1b 5f 74 bc 08 e7 c9 bc
       0.023533238 0.0028798732 -0.014915253 -0.024646297
0002e0 a1 bb 85 3c 02 ab 8c 3c fe 61 42 bc 87 59 9b bc
       0.01632482 0.017171387 -0.0118641835 -0.018963588
0002f0 50 92 0b 3c 2f 82 bc 3c 80 f4 a2 3b fc 6c ca bc
       0.00851877 0.023011295 0.0049729943 -0.02471017
000300 91 5a 13 3c 72 0c c8 3a 98 30 9e bc fc 17 d2 bb
       0.008993761 0.0015262498 -0.01931028 -0.0064115506
000310 f1 b4 6a bc 96 7e bd bc c3 e1 3d 3b ab d6 51 3a
       -0.014325366 -0.02313165 0.0028973676 0.00080047053
000320 0a fb ae 3b 53 e8 e3 b9 d1 ad 5f bc e1 db 4f 3c
       0.005339985 -0.0004346991 -0.013652281 0.012686701
000330 b8 9b 47 3b 0f 9e 5a bc eb 14 8f 3c f2 e3 b8 3c
       0.0030457806 -0.013343348 0.01746603 0.02256963
000340 83 13 c9 3c b7 da 0d bd 47 43 e9 bc 14 8f 92 bc
       0.024545437 -0.03463241 -0.028474463 -0.01789049
000350 04 b2 67 3c 7c 26 c5 bc 1c f8 45 bc 04 98 75 bc
       0.014141563 -0.024066202 -0.01208308 -0.014989857
000360 29 c7 23 bc 92 a8 b5 bc 03 8f ba bc 51 95 ce bc
       -0.009996214 -0.022175107 -0.022773271 -0.025217684
000370 63 ba a0 3c 62 91 1d 3c 51 c3 19 bd 67 d9 a7 bc
       0.019620126 0.0096171815 -0.037539784 -0.020489408
000380 54 5d 93 bc 4f 72 0a bd 2f b8 47 bc 45 3d ca bb
       -0.017988838 -0.03380042 -0.012189909 -0.0061718547
000390 08 63 98 3c 84 f9 16 bd 1e 87 a9 bc 15 90 6c bc
       0.01860191 -0.03685905 -0.020694312 -0.014438649
0003a0 9e 36 31 bb 61 49 d2 bc d7 5f a2 3c 30 17 88 3c
       -0.002704061 -0.025669755 0.01982109 0.01661262
0003b0 91 5a 01 bd 3c a6 b5 3a 7b 27 c1 bb 46 12 03 bd
       -0.03158051 0.0013858746 -0.005894599 -0.03199985
0003c0 b6 d5 2d bc d0 db 92 3c ce 07 b2 ba 1a 91 86 bc
       -0.010610035 0.01792708 -0.0013582648 -0.016426612
0003d0 79 ef c2 bc 8f dc ec bc 52 9f 4f 3c 41 d2 14 bd
       -0.02379583 -0.028913764 0.012672262 -0.036333326
0003e0 b1 cd c6 bb 66 9b 86 3c 63 34 e8 bc a6 5a f6 b8
       -0.006067001 0.016431522 -0.028345292 -0.00011747079
0003f0 30 53 8c 3c 7d 82 50 bb 72 35 c3 bb 17 a0 d2 3b
       0.01712951 -0.0031816058 -0.005957299 0.0064277756

bias f4 [64]
000000 6b 2d 38 3c c5 70 4a bb f8 4c ed bc 05 05 55 3d
       0.011241297 -0.003088997 -0.028967366 0.05200674
000010 83 a5 a0 3d 14 fd a4 3c 35 c9 9d ba 3f 4c 01 bc
       0.07844069 0.020140208 -0.0012038114 -0.007891714
000020 31 69 58 bd bc 1d 67 3d 4d 2c b4 bc fe e8 15 3c
       -0.052834693 0.05642484 -0.02199378 0.009149788
000030 13 3a b9 3d 61 d4 d0 bb 69 4d 1b 3c 91 fc fb bc
       0.0904428 -0.006372974 0.009478905 -0.030760081
000040 2c 2c fa bb 6f 8b c5 bc 6a f7 5c 3c f7 36 9b bc
       -0.00763466 -0.024114339 0.0134867225 -0.018947108
000050 b6 a2 da bd 42 2a d8 3c 23 aa 3c 3d aa 97 67 3c
       -0.10675566 0.026387338 0.046060693 0.014135281
000060 aa 2b 96 3c f7 62 5e 3c 2b 33 8d bc ee 3a 8c bb
       0.018331368 0.0135734 -0.017236313 -0.004279486
000070 55 1c 41 bc 77 40 38 3c 75 e7 b0 bc 9e a3 77 bb
       -0.01178654 0.011245838 -0.021594742 -0.0037786732
000080 9b b2 13 3e 7e 1b 9c 3c 6f 01 fd bc ef 19 86 b9
       0.14423601 0.019056078 -0.030884473 -0.00025577794
000090 91 e5 d7 bc a2 01 1c 3d 08 43 cd bc 66 97 88 3c
       -0.026354583 0.038087495 -0.025056377 0.016673755
0000a0 12 76 2b bd c0 87 c3 bb 4c cb 0b 3d 1d 18 e3 3c
       -0.041860647 -0.0059671104 0.034129426 0.027721459
0000b0 2e ac 4c bd 12 57 1c 3c 47 7f a6 3d 35 82 52 3d
       -0.04996889 0.009542244 0.08129745 0.051393706
0000c0 fd 29 49 3d ab ea 04 bc 05 bc b7 bc b8 46 3e 3c
       0.04911231 -0.00811259 -0.022428522 0.01161354
0000d0 42 69 14 3c 22 ce 44 bc 1f ea a1 3b 2c 1d d4 bc
       0.009058299 -0.0120120365 0.0049412395 -0.025892816
0000e0 e3 bd ff bc b5 9c 03 bd 86 b8 fa 3c 95 b6 ca bc
       -0.031218475 -0.03213187 0.030605566 -0.024745265
0000f0 6e af 54 3d 08 5c 38 3c 8e 16 04 bc 77 2b 49 3b
       0.051925115 0.011252411 -0.008062018 0.0030696073

weight f4 [1, 64]
000000 84 4b d9 3d 35 40 61 3d 39 76 32 3d be d7 10 bf
       0.106101066 0.054992873 0.043569777 -0.56579196
000010 4b 07 d0 be c1 25 a7 be 28 24 8a be 82 a3 91 3c
       -0.40630564 -0.3264599 -0.2698071 0.017778162
000020 d7 df b9 be 3f 00 16 bf 54 43 41 bd e9 ea e3 3c
       -0.3630359 -0.58594126 -0.04718335 0.027821975
000030 70 07 9b 3e 2f 9b 13 3d 90 bd 86 bc 73 a8 b6 3b
       0.30279112 0.036036666 -0.016447812 0.00557428
000040 4d a5 ee 3d 49 e1 ad 3d b1 d1 4c 3b cb eb d5 bd
       0.11652622 0.08490235 0.0031252916 -0.104453646
000050 23 d6 f0 be 70 a2 dc 3e c2 28 ae be f8 3c 99 be
       -0.47038373 0.4309268 -0.3401547 -0.29929328
000060 70 3a 22 3d fb 7c df 3d b5 8f 73 3d 1f 81 71 be
       0.03960651 0.1091251 0.05946322 -0.23584412
000070 c3 9a 88 3d 76 23 9b 3d 66 4e 56 3d 72 2f 0c 3d
       0.066701435 0.07575123 0.05232086 0.034224935
000080 d0 76 60 3e f0 97 48 3d 3f f3 0a 3d 3f bb 4b 3d
       0.21920323 0.048973024 0.033923384 0.04973912
000090 5e 61 c9 bd 5a eb bb be 44 29 a1 be b1 20 a2 be
       -0.098330244 -0.36702996 -0.31476796 -0.31665567
0000a0 1f fe 1a 3d 7b 79 8a 3d c1 f8 f0 be 5b 10 aa be
       0.037840005 0.06761452 -0.47064784 -0.33215603
0000b0 10 70 cf be 21 ba 96 be 8a 6f 3b 3e 4b 77 e2 be
       -0.40515184 -0.2943888 0.18304268 -0.44231638
0000c0 ef eb f1 be c7 25 87 3d bb 7b 85 3c 43 a6 53 3d
       -0.47250316 0.06599002 0.01629435 0.05167223
0000d0 43 5c 5c 3d b8 7b a6 3c 82 9c 87 3c 29 bb bf bd
       0.053798925 0.020322666 0.01655412 -0.0936187
0000e0 bb 76 e9 bd 6f 1c b6 be c9 7c cb be 88 ce da bd
       -0.11399599 -0.35568568 -0.3974364 -0.10683924
0000f0 87 0b a9 be f0 86 29 bd c3 cd 6f bc 30 82 91 3d
       -0.33016607 -0.041388452 -0.01463646 0.071049094
